…
solver_mode: GPU
net: "pose_train_test.prototxt"
I0425 17:25:22.711583 32150 solver.cpp:70] Creating training net from net file: pose_train_test.prototxt
I0425 17:25:22.712177 32150 net.cpp:257] The NetState phase (0) differed from the phase (1) specified by a rule in layer pose
I0425 17:25:22.712404 32150 net.cpp:42] Initializing net from parameters: 
name: "PoseNet"
state {
  phase: TRAIN
}
layer {
  name: "pose"
  type: "HDF5Data"
  top: "data"
  top: "label"
  include {
    phase: TRAIN
  }
  hdf5_data_param {
    source: "filelist_train.txt"
    batch_size: 8
  }
}
layer {
  name: "lrn"
  type: "LRN"
  bottom: "data"
  top: "norm1"
  lrn_param {
    local_size: 5
    alpha: 1
    beta: 0.5
    norm_region: WITHIN_CHANNEL
  }
}
layer {
  name: "conv1"
  type: "Convolution"
  bottom: "norm1"
  top: "conv1"
  param {
    lr_mult: 1
    decay_mult: 1
  }
  param {
    lr_mult: 2
    decay_mult: 0
  }
  convolution_param {
    num_output: 128
    pad: 2
    kernel_size: 5
    stride: 1
    weight_filler {
      type: "gaussian"
      std: 0.01
    }
    bias_filler {
      type: "constant"
    }
  }
}
layer {
  name: "relu1"
  type: "ReLU"
  bottom: "conv1"
  top: "conv1"
}
layer {
  name: "pool1"
  type: "Pooling"
  bottom: "conv1"
  top: "pool1"
  pooling_param {
    pool: MAX
    kernel_size: 2
    stride: 2
  }
}
layer {
  name: "conv2"
  type: "Convolution"
  bottom: "pool1"
  top: "conv2"
  param {
    lr_mult: 1
    decay_mult: 1
  }
  param {
    lr_mult: 2
    decay_mult: 0
  }
  convolution_param {
    num_output: 128
    pad: 2
    kernel_size: 5
    stride: 1
    weight_filler {
      type: "gaussian"
      std: 0.01
    }
    bias_filler {
      type: "constant"
    }
  }
}
layer {
  name: "relu2"
  type: "ReLU"
  bottom: "conv2"
  top: "conv2"
}
layer {
  name: "pool2"
  type: "Pooling"
  bottom: "conv2"
  top: "pool2"
  pooling_param {
    pool: MAX
    kernel_size: 2
    stride: 2
  }
}
layer {
  name: "conv3"
  type: "Convolution"
  bottom: "pool2"
  top: "conv3"
  param {
    lr_mult: 1
    decay_mult: 1
  }
  param {
    lr_mult: 2
    decay_mult: 0
  }
  convolution_param {
    num_output: 32
    pad: 2
    kernel_size: 5
    stride: 1
    weight_filler {
      type: "gaussian"
      std: 0.01
    }
    bias_filler {
      type: "constant"
    }
  }
}
layer {
  name: "relu3"
  type: "ReLU"
  bottom: "conv3"
  top: "conv3"
}
layer {
  name: "conv4"
  type: "Convolution"
  bottom: "conv3"
  top: "conv4"
  param {
    lr_mult: 1
    decay_mult: 1
  }
  param {
    lr_mult: 2
    decay_mult: 0
  }
  convolution_param {
    num_output: 512
    pad: 4
    kernel_size: 9
    stride: 1
    weight_filler {
      type: "gaussian"
      std: 0.01
    }
    bias_filler {
      type: "constant"
    }
  }
}
layer {
  name: "relu4"
  type: "ReLU"
  bottom: "conv4"
  top: "conv4"
}
layer {
  name: "drop1"
  type: "Dropout"
  bottom: "conv4"
  top: "conv4"
  include {
    phase: TRAIN
  }
  dropout_param {
    dropout_ratio: 0.5
  }
}
layer {
  name: "conv5"
  type: "Convolution"
  bottom: "conv4"
  top: "conv5"
  param {
    lr_mult: 1
    decay_mult: 1
  }
  param {
    lr_mult: 2
    decay_mult: 0
  }
  convolution_param {
    num_output: 512
    kernel_size: 1
    stride: 1
    weight_filler {
      type: "gaussian"
      std: 0.01
    }
    bias_filler {
      type: "constant"
    }
  }
}
layer {
  name: "relu5"
  type: "ReLU"
  bottom: "conv5"
  top: "conv5"
}
layer {
  name: "drop2"
  type: "Dropout"
  bottom: "conv5"
  top: "conv5"
  include {
    phase: TRAIN
  }
  dropout_param {
    dropout_ratio: 0.5
  }
}
layer {
  name: "conv6"
  type: "Convolution"
  bottom: "conv5"
  top: "conv6"
  param {
    lr_mult: 1
    decay_mult: 1
  }
  param {
    lr_mult: 2
    decay_mult: 0
  }
  convolution_param {
    num_output: 15
    kernel_size: 1
    stride: 1
    weight_filler {
      type: "gaussian"
      std: 0.01
    }
    bias_filler {
      type: "constant"
    }
  }
}
layer {
  name: "flatten"
  type: "Flatten"
  bottom: "conv6"
  top: "map_vec"
}
layer {
  name: "loss"
  type: "EuclideanLoss"
  bottom: "map_vec"
  bottom: "label"
  top: "loss"
}
I0425 17:25:22.712560 32150 layer_factory.hpp:74] Creating layer pose
I0425 17:25:22.712584 32150 net.cpp:84] Creating Layer pose
I0425 17:25:22.712594 32150 net.cpp:338] pose -> data
I0425 17:25:22.712635 32150 net.cpp:338] pose -> label
I0425 17:25:22.712649 32150 net.cpp:113] Setting up pose
I0425 17:25:22.712659 32150 hdf5_data_layer.cpp:80] Loading list of HDF5 filenames from: filelist_train.txt
I0425 17:25:22.712841 32150 hdf5_data_layer.cpp:94] Number of HDF5 files: 264
I0425 17:25:23.816300 32150 net.cpp:120] Top shape: 8 3 300 300 (2160000)
I0425 17:25:23.816347 32150 net.cpp:120] Top shape: 8 84375 (675000)
I0425 17:25:23.816362 32150 layer_factory.hpp:74] Creating layer lrn
I0425 17:25:23.816385 32150 net.cpp:84] Creating Layer lrn
I0425 17:25:23.816395 32150 net.cpp:380] lrn <- data
I0425 17:25:23.816411 32150 net.cpp:338] lrn -> norm1
I0425 17:25:23.816429 32150 net.cpp:113] Setting up lrn
I0425 17:25:23.816488 32150 net.cpp:120] Top shape: 8 3 300 300 (2160000)
I0425 17:25:23.816498 32150 layer_factory.hpp:74] Creating layer conv1
I0425 17:25:23.816512 32150 net.cpp:84] Creating Layer conv1
I0425 17:25:23.816519 32150 net.cpp:380] conv1 <- norm1
I0425 17:25:23.816529 32150 net.cpp:338] conv1 -> conv1
I0425 17:25:23.816542 32150 net.cpp:113] Setting up conv1
I0425 17:25:23.882488 32150 net.cpp:120] Top shape: 8 128 300 300 (92160000)
I0425 17:25:23.882549 32150 layer_factory.hpp:74] Creating layer relu1
I0425 17:25:23.882575 32150 net.cpp:84] Creating Layer relu1
I0425 17:25:23.882582 32150 net.cpp:380] relu1 <- conv1
I0425 17:25:23.882596 32150 net.cpp:327] relu1 -> conv1 (in-place)
I0425 17:25:23.882611 32150 net.cpp:113] Setting up relu1
I0425 17:25:23.882817 32150 net.cpp:120] Top shape: 8 128 300 300 (92160000)
I0425 17:25:23.882832 32150 layer_factory.hpp:74] Creating layer pool1
I0425 17:25:23.882846 32150 net.cpp:84] Creating Layer pool1
I0425 17:25:23.882853 32150 net.cpp:380] pool1 <- conv1
I0425 17:25:23.882863 32150 net.cpp:338] pool1 -> pool1
I0425 17:25:23.882874 32150 net.cpp:113] Setting up pool1
I0425 17:25:23.882964 32150 net.cpp:120] Top shape: 8 128 150 150 (23040000)
I0425 17:25:23.882975 32150 layer_factory.hpp:74] Creating layer conv2
I0425 17:25:23.882989 32150 net.cpp:84] Creating Layer conv2
I0425 17:25:23.882995 32150 net.cpp:380] conv2 <- pool1
I0425 17:25:23.883005 32150 net.cpp:338] conv2 -> conv2
I0425 17:25:23.883018 32150 net.cpp:113] Setting up conv2
I0425 17:25:23.903679 32150 net.cpp:120] Top shape: 8 128 150 150 (23040000)
I0425 17:25:23.903702 32150 layer_factory.hpp:74] Creating layer relu2
I0425 17:25:23.903713 32150 net.cpp:84] Creating Layer relu2
I0425 17:25:23.903720 32150 net.cpp:380] relu2 <- conv2
I0425 17:25:23.903728 32150 net.cpp:327] relu2 -> conv2 (in-place)
I0425 17:25:23.903738 32150 net.cpp:113] Setting up relu2
I0425 17:25:23.903810 32150 net.cpp:120] Top shape: 8 128 150 150 (23040000)
I0425 17:25:23.903820 32150 layer_factory.hpp:74] Creating layer pool2
I0425 17:25:23.903831 32150 net.cpp:84] Creating Layer pool2
I0425 17:25:23.903838 32150 net.cpp:380] pool2 <- conv2
I0425 17:25:23.903846 32150 net.cpp:338] pool2 -> pool2
I0425 17:25:23.903856 32150 net.cpp:113] Setting up pool2
I0425 17:25:23.903930 32150 net.cpp:120] Top shape: 8 128 75 75 (5760000)
I0425 17:25:23.903939 32150 layer_factory.hpp:74] Creating layer conv3
I0425 17:25:23.903952 32150 net.cpp:84] Creating Layer conv3
I0425 17:25:23.903959 32150 net.cpp:380] conv3 <- pool2
I0425 17:25:23.903969 32150 net.cpp:338] conv3 -> conv3
I0425 17:25:23.903978 32150 net.cpp:113] Setting up conv3
I0425 17:25:23.909332 32150 net.cpp:120] Top shape: 8 32 75 75 (1440000)
I0425 17:25:23.909363 32150 layer_factory.hpp:74] Creating layer relu3
I0425 17:25:23.909389 32150 net.cpp:84] Creating Layer relu3
I0425 17:25:23.909397 32150 net.cpp:380] relu3 <- conv3
I0425 17:25:23.909406 32150 net.cpp:327] relu3 -> conv3 (in-place)
I0425 17:25:23.909416 32150 net.cpp:113] Setting up relu3
I0425 17:25:23.909612 32150 net.cpp:120] Top shape: 8 32 75 75 (1440000)
I0425 17:25:23.909626 32150 layer_factory.hpp:74] Creating layer conv4
I0425 17:25:23.909637 32150 net.cpp:84] Creating Layer conv4
I0425 17:25:23.909643 32150 net.cpp:380] conv4 <- conv3
I0425 17:25:23.909653 32150 net.cpp:338] conv4 -> conv4
I0425 17:25:23.909665 32150 net.cpp:113] Setting up conv4
I0425 17:25:23.975636 32150 net.cpp:120] Top shape: 8 512 75 75 (23040000)
I0425 17:25:23.975659 32150 layer_factory.hpp:74] Creating layer relu4
I0425 17:25:23.975669 32150 net.cpp:84] Creating Layer relu4
I0425 17:25:23.975677 32150 net.cpp:380] relu4 <- conv4
I0425 17:25:23.975685 32150 net.cpp:327] relu4 -> conv4 (in-place)
I0425 17:25:23.975695 32150 net.cpp:113] Setting up relu4
I0425 17:25:23.975770 32150 net.cpp:120] Top shape: 8 512 75 75 (23040000)
I0425 17:25:23.975780 32150 layer_factory.hpp:74] Creating layer drop1
I0425 17:25:23.975795 32150 net.cpp:84] Creating Layer drop1
I0425 17:25:23.975801 32150 net.cpp:380] drop1 <- conv4
I0425 17:25:23.975811 32150 net.cpp:327] drop1 -> conv4 (in-place)
I0425 17:25:23.975822 32150 net.cpp:113] Setting up drop1
I0425 17:25:23.975837 32150 net.cpp:120] Top shape: 8 512 75 75 (23040000)
I0425 17:25:23.975843 32150 layer_factory.hpp:74] Creating layer conv5
I0425 17:25:23.975854 32150 net.cpp:84] Creating Layer conv5
I0425 17:25:23.975860 32150 net.cpp:380] conv5 <- conv4
I0425 17:25:23.975872 32150 net.cpp:338] conv5 -> conv5
I0425 17:25:23.975883 32150 net.cpp:113] Setting up conv5
I0425 17:25:23.989045 32150 net.cpp:120] Top shape: 8 512 75 75 (23040000)
I0425 17:25:23.989068 32150 layer_factory.hpp:74] Creating layer relu5
I0425 17:25:23.989079 32150 net.cpp:84] Creating Layer relu5
I0425 17:25:23.989086 32150 net.cpp:380] relu5 <- conv5
I0425 17:25:23.989095 32150 net.cpp:327] relu5 -> conv5 (in-place)
I0425 17:25:23.989104 32150 net.cpp:113] Setting up relu5
I0425 17:25:23.989183 32150 net.cpp:120] Top shape: 8 512 75 75 (23040000)
I0425 17:25:23.989193 32150 layer_factory.hpp:74] Creating layer drop2
I0425 17:25:23.989204 32150 net.cpp:84] Creating Layer drop2
I0425 17:25:23.989212 32150 net.cpp:380] drop2 <- conv5
I0425 17:25:23.989219 32150 net.cpp:327] drop2 -> conv5 (in-place)
I0425 17:25:23.989229 32150 net.cpp:113] Setting up drop2
I0425 17:25:23.989238 32150 net.cpp:120] Top shape: 8 512 75 75 (23040000)
I0425 17:25:23.989244 32150 layer_factory.hpp:74] Creating layer conv6
I0425 17:25:23.989259 32150 net.cpp:84] Creating Layer conv6
I0425 17:25:23.989265 32150 net.cpp:380] conv6 <- conv5
I0425 17:25:23.989276 32150 net.cpp:338] conv6 -> conv6
I0425 17:25:23.989287 32150 net.cpp:113] Setting up conv6
I0425 17:25:23.990067 32150 net.cpp:120] Top shape: 8 15 75 75 (675000)
I0425 17:25:23.990084 32150 layer_factory.hpp:74] Creating layer flatten
I0425 17:25:23.990097 32150 net.cpp:84] Creating Layer flatten
I0425 17:25:23.990104 32150 net.cpp:380] flatten <- conv6
I0425 17:25:23.990113 32150 net.cpp:338] flatten -> map_vec
I0425 17:25:23.990123 32150 net.cpp:113] Setting up flatten
I0425 17:25:23.990134 32150 net.cpp:120] Top shape: 8 84375 (675000)
I0425 17:25:23.990140 32150 layer_factory.hpp:74] Creating layer loss
I0425 17:25:23.990152 32150 net.cpp:84] Creating Layer loss
I0425 17:25:23.990159 32150 net.cpp:380] loss <- map_vec
I0425 17:25:23.990166 32150 net.cpp:380] loss <- label
I0425 17:25:23.990176 32150 net.cpp:338] loss -> loss
I0425 17:25:23.990187 32150 net.cpp:113] Setting up loss
I0425 17:25:23.990203 32150 net.cpp:120] Top shape: (1)
…
I0425 17:25:23.990988 32150 net.cpp:257] The NetState phase (1) differed from the phase (0) specified by a rule in layer pose
I0425 17:25:23.991005 32150 net.cpp:257] The NetState phase (1) differed from the phase (0) specified by a rule in layer drop1
I0425 17:25:23.991014 32150 net.cpp:257] The NetState phase (1) differed from the phase (0) specified by a rule in layer drop2
I0425 17:25:23.991188 32150 net.cpp:42] Initializing net from parameters: 
name: "PoseNet"
state {
  phase: TEST
}
layer {
  name: "pose"
  type: "HDF5Data"
  top: "data"
  top: "label"
  include {
    phase: TEST
  }
  hdf5_data_param {
    source: "filelist_test.txt"
    batch_size: 8
  }
}
layer {
  name: "lrn"
  type: "LRN"
  bottom: "data"
  top: "norm1"
  lrn_param {
    local_size: 5
    alpha: 1
    beta: 0.5
    norm_region: WITHIN_CHANNEL
  }
}
layer {
  name: "conv1"
  type: "Convolution"
  bottom: "norm1"
  top: "conv1"
  param {
    lr_mult: 1
    decay_mult: 1
  }
  param {
    lr_mult: 2
    decay_mult: 0
  }
  convolution_param {
    num_output: 128
    pad: 2
    kernel_size: 5
    stride: 1
    weight_filler {
      type: "gaussian"
      std: 0.01
    }
    bias_filler {
      type: "constant"
    }
  }
}
layer {
  name: "relu1"
  type: "ReLU"
  bottom: "conv1"
  top: "conv1"
}
layer {
  name: "pool1"
  type: "Pooling"
  bottom: "conv1"
  top: "pool1"
  pooling_param {
    pool: MAX
    kernel_size: 2
    stride: 2
  }
}
layer {
  name: "conv2"
  type: "Convolution"
  bottom: "pool1"
  top: "conv2"
  param {
    lr_mult: 1
    decay_mult: 1
  }
  param {
    lr_mult: 2
    decay_mult: 0
  }
  convolution_param {
    num_output: 128
    pad: 2
    kernel_size: 5
    stride: 1
    weight_filler {
      type: "gaussian"
      std: 0.01
    }
    bias_filler {
      type: "constant"
    }
  }
}
layer {
  name: "relu2"
  type: "ReLU"
  bottom: "conv2"
  top: "conv2"
}
layer {
  name: "pool2"
  type: "Pooling"
  bottom: "conv2"
  top: "pool2"
  pooling_param {
    pool: MAX
    kernel_size: 2
    stride: 2
  }
}
layer {
  name: "conv3"
  type: "Convolution"
  bottom: "pool2"
  top: "conv3"
  param {
    lr_mult: 1
    decay_mult: 1
  }
  param {
    lr_mult: 2
    decay_mult: 0
  }
  convolution_param {
    num_output: 32
    pad: 2
    kernel_size: 5
    stride: 1
    weight_filler {
      type: "gaussian"
      std: 0.01
    }
    bias_filler {
      type: "constant"
    }
  }
}
layer {
  name: "relu3"
  type: "ReLU"
  bottom: "conv3"
  top: "conv3"
}
layer {
  name: "conv4"
  type: "Convolution"
  bottom: "conv3"
  top: "conv4"
  param {
    lr_mult: 1
    decay_mult: 1
  }
  param {
    lr_mult: 2
    decay_mult: 0
  }
  convolution_param {
    num_output: 512
    pad: 4
    kernel_size: 9
    stride: 1
    weight_filler {
      type: "gaussian"
      std: 0.01
    }
    bias_filler {
      type: "constant"
    }
  }
}
layer {
  name: "relu4"
  type: "ReLU"
  bottom: "conv4"
  top: "conv4"
}
layer {
  name: "conv5"
  type: "Convolution"
  bottom: "conv4"
  top: "conv5"
  param {
    lr_mult: 1
    decay_mult: 1
  }
  param {
    lr_mult: 2
    decay_mult: 0
  }
  convolution_param {
    num_output: 512
    kernel_size: 1
    stride: 1
    weight_filler {
      type: "gaussian"
      std: 0.01
    }
    bias_filler {
      type: "constant"
    }
  }
}
layer {
  name: "relu5"
  type: "ReLU"
  bottom: "conv5"
  top: "conv5"
}
layer {
  name: "conv6"
  type: "Convolution"
  bottom: "conv5"
  top: "conv6"
  param {
    lr_mult: 1
    decay_mult: 1
  }
  param {
    lr_mult: 2
    decay_mult: 0
  }
  convolution_param {
    num_output: 15
    kernel_size: 1
    stride: 1
    weight_filler {
      type: "gaussian"
      std: 0.01
    }
    bias_filler {
      type: "constant"
    }
  }
}
layer {
  name: "flatten"
  type: "Flatten"
  bottom: "conv6"
  top: "map_vec"
}
layer {
  name: "loss"
  type: "EuclideanLoss"
  bottom: "map_vec"
  bottom: "label"
  top: "loss"
}
I0425 17:25:23.991286 32150 layer_factory.hpp:74] Creating layer pose
I0425 17:25:23.991302 32150 net.cpp:84] Creating Layer pose
I0425 17:25:23.991309 32150 net.cpp:338] pose -> data
I0425 17:25:23.991322 32150 net.cpp:338] pose -> label
I0425 17:25:23.991332 32150 net.cpp:113] Setting up pose
I0425 17:25:23.991338 32150 hdf5_data_layer.cpp:80] Loading list of HDF5 filenames from: filelist_test.txt
I0425 17:25:23.991381 32150 hdf5_data_layer.cpp:94] Number of HDF5 files: 24
I0425 17:25:25.066517 32150 net.cpp:120] Top shape: 8 3 300 300 (2160000)
I0425 17:25:25.066562 32150 net.cpp:120] Top shape: 8 84375 (675000)
I0425 17:25:25.066576 32150 layer_factory.hpp:74] Creating layer lrn
I0425 17:25:25.066594 32150 net.cpp:84] Creating Layer lrn
I0425 17:25:25.066602 32150 net.cpp:380] lrn <- data
I0425 17:25:25.066613 32150 net.cpp:338] lrn -> norm1
I0425 17:25:25.066629 32150 net.cpp:113] Setting up lrn
I0425 17:25:25.066660 32150 net.cpp:120] Top shape: 8 3 300 300 (2160000)
I0425 17:25:25.066668 32150 layer_factory.hpp:74] Creating layer conv1
I0425 17:25:25.066683 32150 net.cpp:84] Creating Layer conv1
I0425 17:25:25.066689 32150 net.cpp:380] conv1 <- norm1
I0425 17:25:25.066697 32150 net.cpp:338] conv1 -> conv1
I0425 17:25:25.066709 32150 net.cpp:113] Setting up conv1
I0425 17:25:25.067749 32150 net.cpp:120] Top shape: 8 128 300 300 (92160000)
I0425 17:25:25.067772 32150 layer_factory.hpp:74] Creating layer relu1
I0425 17:25:25.067783 32150 net.cpp:84] Creating Layer relu1
I0425 17:25:25.067790 32150 net.cpp:380] relu1 <- conv1
I0425 17:25:25.067798 32150 net.cpp:327] relu1 -> conv1 (in-place)
I0425 17:25:25.067807 32150 net.cpp:113] Setting up relu1
I0425 17:25:25.067883 32150 net.cpp:120] Top shape: 8 128 300 300 (92160000)
I0425 17:25:25.067891 32150 layer_factory.hpp:74] Creating layer pool1
I0425 17:25:25.067903 32150 net.cpp:84] Creating Layer pool1
I0425 17:25:25.067909 32150 net.cpp:380] pool1 <- conv1
I0425 17:25:25.067917 32150 net.cpp:338] pool1 -> pool1
I0425 17:25:25.067926 32150 net.cpp:113] Setting up pool1
I0425 17:25:25.068135 32150 net.cpp:120] Top shape: 8 128 150 150 (23040000)
I0425 17:25:25.068147 32150 layer_factory.hpp:74] Creating layer conv2
I0425 17:25:25.068159 32150 net.cpp:84] Creating Layer conv2
I0425 17:25:25.068166 32150 net.cpp:380] conv2 <- pool1
I0425 17:25:25.068187 32150 net.cpp:338] conv2 -> conv2
I0425 17:25:25.068199 32150 net.cpp:113] Setting up conv2
I0425 17:25:25.089011 32150 net.cpp:120] Top shape: 8 128 150 150 (23040000)
I0425 17:25:25.089035 32150 layer_factory.hpp:74] Creating layer relu2
I0425 17:25:25.089054 32150 net.cpp:84] Creating Layer relu2
I0425 17:25:25.089089 32150 net.cpp:380] relu2 <- conv2
I0425 17:25:25.089100 32150 net.cpp:327] relu2 -> conv2 (in-place)
I0425 17:25:25.089110 32150 net.cpp:113] Setting up relu2
I0425 17:25:25.089208 32150 net.cpp:120] Top shape: 8 128 150 150 (23040000)
I0425 17:25:25.089220 32150 layer_factory.hpp:74] Creating layer pool2
I0425 17:25:25.089231 32150 net.cpp:84] Creating Layer pool2
I0425 17:25:25.089237 32150 net.cpp:380] pool2 <- conv2
I0425 17:25:25.089246 32150 net.cpp:338] pool2 -> pool2
I0425 17:25:25.089254 32150 net.cpp:113] Setting up pool2
I0425 17:25:25.089336 32150 net.cpp:120] Top shape: 8 128 75 75 (5760000)
I0425 17:25:25.089346 32150 layer_factory.hpp:74] Creating layer conv3
I0425 17:25:25.089359 32150 net.cpp:84] Creating Layer conv3
I0425 17:25:25.089365 32150 net.cpp:380] conv3 <- pool2
I0425 17:25:25.089377 32150 net.cpp:338] conv3 -> conv3
I0425 17:25:25.089387 32150 net.cpp:113] Setting up conv3
I0425 17:25:25.094727 32150 net.cpp:120] Top shape: 8 32 75 75 (1440000)
I0425 17:25:25.094748 32150 layer_factory.hpp:74] Creating layer relu3
I0425 17:25:25.094758 32150 net.cpp:84] Creating Layer relu3
I0425 17:25:25.094763 32150 net.cpp:380] relu3 <- conv3
I0425 17:25:25.094774 32150 net.cpp:327] relu3 -> conv3 (in-place)
I0425 17:25:25.094784 32150 net.cpp:113] Setting up relu3
I0425 17:25:25.094863 32150 net.cpp:120] Top shape: 8 32 75 75 (1440000)
I0425 17:25:25.094873 32150 layer_factory.hpp:74] Creating layer conv4
I0425 17:25:25.094885 32150 net.cpp:84] Creating Layer conv4
I0425 17:25:25.094892 32150 net.cpp:380] conv4 <- conv3
I0425 17:25:25.094902 32150 net.cpp:338] conv4 -> conv4
I0425 17:25:25.094913 32150 net.cpp:113] Setting up conv4
I0425 17:25:25.160326 32150 net.cpp:120] Top shape: 8 512 75 75 (23040000)
I0425 17:25:25.160347 32150 layer_factory.hpp:74] Creating layer relu4
I0425 17:25:25.160358 32150 net.cpp:84] Creating Layer relu4
I0425 17:25:25.160364 32150 net.cpp:380] relu4 <- conv4
I0425 17:25:25.160377 32150 net.cpp:327] relu4 -> conv4 (in-place)
I0425 17:25:25.160387 32150 net.cpp:113] Setting up relu4
I0425 17:25:25.160589 32150 net.cpp:120] Top shape: 8 512 75 75 (23040000)
I0425 17:25:25.160604 32150 layer_factory.hpp:74] Creating layer conv5
I0425 17:25:25.160616 32150 net.cpp:84] Creating Layer conv5
I0425 17:25:25.160624 32150 net.cpp:380] conv5 <- conv4
I0425 17:25:25.160634 32150 net.cpp:338] conv5 -> conv5
I0425 17:25:25.160645 32150 net.cpp:113] Setting up conv5
I0425 17:25:25.173853 32150 net.cpp:120] Top shape: 8 512 75 75 (23040000)
I0425 17:25:25.173876 32150 layer_factory.hpp:74] Creating layer relu5
I0425 17:25:25.173887 32150 net.cpp:84] Creating Layer relu5
I0425 17:25:25.173894 32150 net.cpp:380] relu5 <- conv5
I0425 17:25:25.173903 32150 net.cpp:327] relu5 -> conv5 (in-place)
I0425 17:25:25.173913 32150 net.cpp:113] Setting up relu5
I0425 17:25:25.173998 32150 net.cpp:120] Top shape: 8 512 75 75 (23040000)
I0425 17:25:25.174008 32150 layer_factory.hpp:74] Creating layer conv6
I0425 17:25:25.174021 32150 net.cpp:84] Creating Layer conv6
I0425 17:25:25.174027 32150 net.cpp:380] conv6 <- conv5
I0425 17:25:25.174036 32150 net.cpp:338] conv6 -> conv6
I0425 17:25:25.174047 32150 net.cpp:113] Setting up conv6
I0425 17:25:25.174829 32150 net.cpp:120] Top shape: 8 15 75 75 (675000)
I0425 17:25:25.174846 32150 layer_factory.hpp:74] Creating layer flatten
I0425 17:25:25.174856 32150 net.cpp:84] Creating Layer flatten
I0425 17:25:25.174862 32150 net.cpp:380] flatten <- conv6
I0425 17:25:25.174871 32150 net.cpp:338] flatten -> map_vec
I0425 17:25:25.174881 32150 net.cpp:113] Setting up flatten
I0425 17:25:25.174890 32150 net.cpp:120] Top shape: 8 84375 (675000)
I0425 17:25:25.174896 32150 layer_factory.hpp:74] Creating layer loss
I0425 17:25:25.174911 32150 net.cpp:84] Creating Layer loss
I0425 17:25:25.174917 32150 net.cpp:380] loss <- map_vec
I0425 17:25:25.174924 32150 net.cpp:380] loss <- label
I0425 17:25:25.174933 32150 net.cpp:338] loss -> loss
I0425 17:25:25.174942 32150 net.cpp:113] Setting up loss
I0425 17:25:25.174959 32150 net.cpp:120] Top shape: (1)
…
