…
solver_mode: GPU
net: "train_val.prototxt"
I0427 05:09:37.316728  8466 solver.cpp:70] Creating training net from net file: train_val.prototxt
I0427 05:09:37.317487  8466 net.cpp:257] The NetState phase (0) differed from the phase (1) specified by a rule in layer data
I0427 05:09:37.317764  8466 net.cpp:42] Initializing net from parameters: 
name: "CaffeNet"
state {
  phase: TRAIN
}
layer {
  name: "data"
  type: "HDF5Data"
  top: "data"
  top: "label"
  include {
    phase: TRAIN
  }
  hdf5_data_param {
    source: "videoSum_train.txt"
    batch_size: 128
  }
}
layer {
  name: "conv1"
  type: "Convolution"
  bottom: "data"
  top: "conv1"
  param {
    lr_mult: 0.001
    decay_mult: 1
  }
  param {
    lr_mult: 0.002
    decay_mult: 0
  }
  convolution_param {
    num_output: 96
    kernel_size: 11
    stride: 4
    weight_filler {
      type: "gaussian"
      std: 0.01
    }
    bias_filler {
      type: "constant"
      value: 0
    }
  }
}
layer {
  name: "relu1"
  type: "ReLU"
  bottom: "conv1"
  top: "conv1"
}
layer {
  name: "pool1"
  type: "Pooling"
  bottom: "conv1"
  top: "pool1"
  pooling_param {
    pool: MAX
    kernel_size: 3
    stride: 2
  }
}
layer {
  name: "norm1"
  type: "LRN"
  bottom: "pool1"
  top: "norm1"
  lrn_param {
    local_size: 5
    alpha: 0.0001
    beta: 0.75
  }
}
layer {
  name: "conv2"
  type: "Convolution"
  bottom: "norm1"
  top: "conv2"
  param {
    lr_mult: 0.001
    decay_mult: 1
  }
  param {
    lr_mult: 0.002
    decay_mult: 0
  }
  convolution_param {
    num_output: 256
    pad: 2
    kernel_size: 5
    group: 2
    weight_filler {
      type: "gaussian"
      std: 0.01
    }
    bias_filler {
      type: "constant"
      value: 1
    }
  }
}
layer {
  name: "relu2"
  type: "ReLU"
  bottom: "conv2"
  top: "conv2"
}
layer {
  name: "pool2"
  type: "Pooling"
  bottom: "conv2"
  top: "pool2"
  pooling_param {
    pool: MAX
    kernel_size: 3
    stride: 2
  }
}
layer {
  name: "norm2"
  type: "LRN"
  bottom: "pool2"
  top: "norm2"
  lrn_param {
    local_size: 5
    alpha: 0.0001
    beta: 0.75
  }
}
layer {
  name: "conv3"
  type: "Convolution"
  bottom: "norm2"
  top: "conv3"
  param {
    lr_mult: 0.001
    decay_mult: 1
  }
  param {
    lr_mult: 0.002
    decay_mult: 0
  }
  convolution_param {
    num_output: 384
    pad: 1
    kernel_size: 3
    weight_filler {
      type: "gaussian"
      std: 0.01
    }
    bias_filler {
      type: "constant"
      value: 0
    }
  }
}
layer {
  name: "relu3"
  type: "ReLU"
  bottom: "conv3"
  top: "conv3"
}
layer {
  name: "conv4"
  type: "Convolution"
  bottom: "conv3"
  top: "conv4"
  param {
    lr_mult: 0.001
    decay_mult: 1
  }
  param {
    lr_mult: 0.002
    decay_mult: 0
  }
  convolution_param {
    num_output: 384
    pad: 1
    kernel_size: 3
    group: 2
    weight_filler {
      type: "gaussian"
      std: 0.01
    }
    bias_filler {
      type: "constant"
      value: 1
    }
  }
}
layer {
  name: "relu4"
  type: "ReLU"
  bottom: "conv4"
  top: "conv4"
}
layer {
  name: "conv5"
  type: "Convolution"
  bottom: "conv4"
  top: "conv5"
  param {
    lr_mult: 0.001
    decay_mult: 1
  }
  param {
    lr_mult: 0.002
    decay_mult: 0
  }
  convolution_param {
    num_output: 256
    pad: 1
    kernel_size: 3
    group: 2
    weight_filler {
      type: "gaussian"
      std: 0.01
    }
    bias_filler {
      type: "constant"
      value: 1
    }
  }
}
layer {
  name: "relu5"
  type: "ReLU"
  bottom: "conv5"
  top: "conv5"
}
layer {
  name: "pool5"
  type: "Pooling"
  bottom: "conv5"
  top: "pool5"
  pooling_param {
    pool: MAX
    kernel_size: 3
    stride: 2
  }
}
layer {
  name: "fc6"
  type: "InnerProduct"
  bottom: "pool5"
  top: "fc6"
  param {
    lr_mult: 0.001
    decay_mult: 1
  }
  param {
    lr_mult: 0.002
    decay_mult: 0
  }
  inner_product_param {
    num_output: 4096
    weight_filler {
      type: "gaussian"
      std: 0.005
    }
    bias_filler {
      type: "constant"
      value: 1
    }
  }
}
layer {
  name: "relu6"
  type: "ReLU"
  bottom: "fc6"
  top: "fc6"
}
layer {
  name: "drop6"
  type: "Dropout"
  bottom: "fc6"
  top: "fc6"
  dropout_param {
    dropout_ratio: 0.5
  }
}
layer {
  name: "fc7"
  type: "InnerProduct"
  bottom: "fc6"
  top: "fc7"
  param {
    lr_mult: 0.001
    decay_mult: 1
  }
  param {
    lr_mult: 0.002
    decay_mult: 0
  }
  inner_product_param {
    num_output: 4096
    weight_filler {
      type: "gaussian"
      std: 0.005
    }
    bias_filler {
      type: "constant"
      value: 1
    }
  }
}
layer {
  name: "relu7"
  type: "ReLU"
  bottom: "fc7"
  top: "fc7"
}
layer {
  name: "drop7"
  type: "Dropout"
  bottom: "fc7"
  top: "fc7"
  dropout_param {
    dropout_ratio: 0.5
  }
}
layer {
  name: "fc8_learn"
  type: "InnerProduct"
  bottom: "fc7"
  top: "fc8"
  param {
    lr_mult: 1
    decay_mult: 1
  }
  param {
    lr_mult: 2
    decay_mult: 0
  }
  inner_product_param {
    num_output: 1000
    weight_filler {
      type: "gaussian"
      std: 0.01
    }
    bias_filler {
      type: "constant"
      value: 0
    }
  }
}
layer {
  name: "loss"
  type: "EuclideanLoss"
  bottom: "fc8"
  bottom: "label"
  top: "loss"
}
I0427 05:09:37.317930  8466 layer_factory.hpp:74] Creating layer data
I0427 05:09:37.317955  8466 net.cpp:84] Creating Layer data
I0427 05:09:37.317966  8466 net.cpp:338] data -> data
I0427 05:09:37.318003  8466 net.cpp:338] data -> label
I0427 05:09:37.318018  8466 net.cpp:113] Setting up data
I0427 05:09:37.318027  8466 hdf5_data_layer.cpp:80] Loading list of HDF5 filenames from: videoSum_train.txt
I0427 05:09:37.319263  8466 hdf5_data_layer.cpp:94] Number of HDF5 files: 3094
I0427 05:09:37.384531  8466 net.cpp:120] Top shape: 128 3 227 227 (19787136)
I0427 05:09:37.384573  8466 net.cpp:120] Top shape: 128 1 (128)
I0427 05:09:37.384588  8466 layer_factory.hpp:74] Creating layer conv1
I0427 05:09:37.384611  8466 net.cpp:84] Creating Layer conv1
I0427 05:09:37.384619  8466 net.cpp:380] conv1 <- data
I0427 05:09:37.384635  8466 net.cpp:338] conv1 -> conv1
I0427 05:09:37.384655  8466 net.cpp:113] Setting up conv1
I0427 05:09:37.456154  8466 net.cpp:120] Top shape: 128 96 55 55 (37171200)
I0427 05:09:37.456210  8466 layer_factory.hpp:74] Creating layer relu1
I0427 05:09:37.456228  8466 net.cpp:84] Creating Layer relu1
I0427 05:09:37.456257  8466 net.cpp:380] relu1 <- conv1
I0427 05:09:37.456272  8466 net.cpp:327] relu1 -> conv1 (in-place)
I0427 05:09:37.456285  8466 net.cpp:113] Setting up relu1
I0427 05:09:37.456506  8466 net.cpp:120] Top shape: 128 96 55 55 (37171200)
I0427 05:09:37.456519  8466 layer_factory.hpp:74] Creating layer pool1
I0427 05:09:37.456535  8466 net.cpp:84] Creating Layer pool1
I0427 05:09:37.456542  8466 net.cpp:380] pool1 <- conv1
I0427 05:09:37.456552  8466 net.cpp:338] pool1 -> pool1
I0427 05:09:37.456562  8466 net.cpp:113] Setting up pool1
I0427 05:09:37.456656  8466 net.cpp:120] Top shape: 128 96 27 27 (8957952)
I0427 05:09:37.456667  8466 layer_factory.hpp:74] Creating layer norm1
I0427 05:09:37.456682  8466 net.cpp:84] Creating Layer norm1
I0427 05:09:37.456689  8466 net.cpp:380] norm1 <- pool1
I0427 05:09:37.456698  8466 net.cpp:338] norm1 -> norm1
I0427 05:09:37.456712  8466 net.cpp:113] Setting up norm1
I0427 05:09:37.456727  8466 net.cpp:120] Top shape: 128 96 27 27 (8957952)
I0427 05:09:37.456733  8466 layer_factory.hpp:74] Creating layer conv2
I0427 05:09:37.456746  8466 net.cpp:84] Creating Layer conv2
I0427 05:09:37.456753  8466 net.cpp:380] conv2 <- norm1
I0427 05:09:37.456760  8466 net.cpp:338] conv2 -> conv2
I0427 05:09:37.456771  8466 net.cpp:113] Setting up conv2
I0427 05:09:37.473001  8466 net.cpp:120] Top shape: 128 256 27 27 (23887872)
I0427 05:09:37.473044  8466 layer_factory.hpp:74] Creating layer relu2
I0427 05:09:37.473058  8466 net.cpp:84] Creating Layer relu2
I0427 05:09:37.473080  8466 net.cpp:380] relu2 <- conv2
I0427 05:09:37.473111  8466 net.cpp:327] relu2 -> conv2 (in-place)
I0427 05:09:37.473124  8466 net.cpp:113] Setting up relu2
I0427 05:09:37.473217  8466 net.cpp:120] Top shape: 128 256 27 27 (23887872)
I0427 05:09:37.473228  8466 layer_factory.hpp:74] Creating layer pool2
I0427 05:09:37.473240  8466 net.cpp:84] Creating Layer pool2
I0427 05:09:37.473248  8466 net.cpp:380] pool2 <- conv2
I0427 05:09:37.473273  8466 net.cpp:338] pool2 -> pool2
I0427 05:09:37.473284  8466 net.cpp:113] Setting up pool2
I0427 05:09:37.473362  8466 net.cpp:120] Top shape: 128 256 13 13 (5537792)
I0427 05:09:37.473371  8466 layer_factory.hpp:74] Creating layer norm2
I0427 05:09:37.473384  8466 net.cpp:84] Creating Layer norm2
I0427 05:09:37.473390  8466 net.cpp:380] norm2 <- pool2
I0427 05:09:37.473399  8466 net.cpp:338] norm2 -> norm2
I0427 05:09:37.473409  8466 net.cpp:113] Setting up norm2
I0427 05:09:37.473419  8466 net.cpp:120] Top shape: 128 256 13 13 (5537792)
I0427 05:09:37.473426  8466 layer_factory.hpp:74] Creating layer conv3
I0427 05:09:37.473438  8466 net.cpp:84] Creating Layer conv3
I0427 05:09:37.473443  8466 net.cpp:380] conv3 <- norm2
I0427 05:09:37.473453  8466 net.cpp:338] conv3 -> conv3
I0427 05:09:37.473464  8466 net.cpp:113] Setting up conv3
I0427 05:09:37.518210  8466 net.cpp:120] Top shape: 128 384 13 13 (8306688)
I0427 05:09:37.518255  8466 layer_factory.hpp:74] Creating layer relu3
I0427 05:09:37.518270  8466 net.cpp:84] Creating Layer relu3
I0427 05:09:37.518276  8466 net.cpp:380] relu3 <- conv3
I0427 05:09:37.518290  8466 net.cpp:327] relu3 -> conv3 (in-place)
I0427 05:09:37.518302  8466 net.cpp:113] Setting up relu3
I0427 05:09:37.518504  8466 net.cpp:120] Top shape: 128 384 13 13 (8306688)
I0427 05:09:37.518519  8466 layer_factory.hpp:74] Creating layer conv4
I0427 05:09:37.518533  8466 net.cpp:84] Creating Layer conv4
I0427 05:09:37.518539  8466 net.cpp:380] conv4 <- conv3
I0427 05:09:37.518549  8466 net.cpp:338] conv4 -> conv4
I0427 05:09:37.518573  8466 net.cpp:113] Setting up conv4
I0427 05:09:37.552734  8466 net.cpp:120] Top shape: 128 384 13 13 (8306688)
I0427 05:09:37.552775  8466 layer_factory.hpp:74] Creating layer relu4
I0427 05:09:37.552796  8466 net.cpp:84] Creating Layer relu4
I0427 05:09:37.552804  8466 net.cpp:380] relu4 <- conv4
I0427 05:09:37.552815  8466 net.cpp:327] relu4 -> conv4 (in-place)
I0427 05:09:37.552827  8466 net.cpp:113] Setting up relu4
I0427 05:09:37.552911  8466 net.cpp:120] Top shape: 128 384 13 13 (8306688)
I0427 05:09:37.552920  8466 layer_factory.hpp:74] Creating layer conv5
I0427 05:09:37.552934  8466 net.cpp:84] Creating Layer conv5
I0427 05:09:37.552942  8466 net.cpp:380] conv5 <- conv4
I0427 05:09:37.552950  8466 net.cpp:338] conv5 -> conv5
I0427 05:09:37.552961  8466 net.cpp:113] Setting up conv5
I0427 05:09:37.576381  8466 net.cpp:120] Top shape: 128 256 13 13 (5537792)
I0427 05:09:37.576432  8466 layer_factory.hpp:74] Creating layer relu5
I0427 05:09:37.576447  8466 net.cpp:84] Creating Layer relu5
I0427 05:09:37.576454  8466 net.cpp:380] relu5 <- conv5
I0427 05:09:37.576467  8466 net.cpp:327] relu5 -> conv5 (in-place)
I0427 05:09:37.576478  8466 net.cpp:113] Setting up relu5
I0427 05:09:37.576570  8466 net.cpp:120] Top shape: 128 256 13 13 (5537792)
I0427 05:09:37.576581  8466 layer_factory.hpp:74] Creating layer pool5
I0427 05:09:37.576592  8466 net.cpp:84] Creating Layer pool5
I0427 05:09:37.576598  8466 net.cpp:380] pool5 <- conv5
I0427 05:09:37.576611  8466 net.cpp:338] pool5 -> pool5
I0427 05:09:37.576620  8466 net.cpp:113] Setting up pool5
I0427 05:09:37.576706  8466 net.cpp:120] Top shape: 128 256 6 6 (1179648)
I0427 05:09:37.576715  8466 layer_factory.hpp:74] Creating layer fc6
I0427 05:09:37.576733  8466 net.cpp:84] Creating Layer fc6
I0427 05:09:37.576740  8466 net.cpp:380] fc6 <- pool5
I0427 05:09:37.576751  8466 net.cpp:338] fc6 -> fc6
I0427 05:09:37.576764  8466 net.cpp:113] Setting up fc6
I0427 05:09:39.450125  8466 net.cpp:120] Top shape: 128 4096 (524288)
I0427 05:09:39.450170  8466 layer_factory.hpp:74] Creating layer relu6
I0427 05:09:39.450193  8466 net.cpp:84] Creating Layer relu6
I0427 05:09:39.450227  8466 net.cpp:380] relu6 <- fc6
I0427 05:09:39.450240  8466 net.cpp:327] relu6 -> fc6 (in-place)
I0427 05:09:39.450254  8466 net.cpp:113] Setting up relu6
I0427 05:09:39.450588  8466 net.cpp:120] Top shape: 128 4096 (524288)
I0427 05:09:39.450601  8466 layer_factory.hpp:74] Creating layer drop6
I0427 05:09:39.450615  8466 net.cpp:84] Creating Layer drop6
I0427 05:09:39.450623  8466 net.cpp:380] drop6 <- fc6
I0427 05:09:39.450631  8466 net.cpp:327] drop6 -> fc6 (in-place)
I0427 05:09:39.450645  8466 net.cpp:113] Setting up drop6
I0427 05:09:39.450662  8466 net.cpp:120] Top shape: 128 4096 (524288)
I0427 05:09:39.450669  8466 layer_factory.hpp:74] Creating layer fc7
I0427 05:09:39.450682  8466 net.cpp:84] Creating Layer fc7
I0427 05:09:39.450688  8466 net.cpp:380] fc7 <- fc6
I0427 05:09:39.450697  8466 net.cpp:338] fc7 -> fc7
I0427 05:09:39.450708  8466 net.cpp:113] Setting up fc7
I0427 05:09:40.294782  8466 net.cpp:120] Top shape: 128 4096 (524288)
I0427 05:09:40.294827  8466 layer_factory.hpp:74] Creating layer relu7
I0427 05:09:40.294842  8466 net.cpp:84] Creating Layer relu7
I0427 05:09:40.294849  8466 net.cpp:380] relu7 <- fc7
I0427 05:09:40.294864  8466 net.cpp:327] relu7 -> fc7 (in-place)
I0427 05:09:40.294878  8466 net.cpp:113] Setting up relu7
I0427 05:09:40.295006  8466 net.cpp:120] Top shape: 128 4096 (524288)
I0427 05:09:40.295016  8466 layer_factory.hpp:74] Creating layer drop7
I0427 05:09:40.295025  8466 net.cpp:84] Creating Layer drop7
I0427 05:09:40.295032  8466 net.cpp:380] drop7 <- fc7
I0427 05:09:40.295042  8466 net.cpp:327] drop7 -> fc7 (in-place)
I0427 05:09:40.295053  8466 net.cpp:113] Setting up drop7
I0427 05:09:40.295063  8466 net.cpp:120] Top shape: 128 4096 (524288)
I0427 05:09:40.295068  8466 layer_factory.hpp:74] Creating layer fc8_learn
I0427 05:09:40.295080  8466 net.cpp:84] Creating Layer fc8_learn
I0427 05:09:40.295086  8466 net.cpp:380] fc8_learn <- fc7
I0427 05:09:40.295101  8466 net.cpp:338] fc8_learn -> fc8
I0427 05:09:40.295112  8466 net.cpp:113] Setting up fc8_learn
I0427 05:09:40.503181  8466 net.cpp:120] Top shape: 128 1000 (128000)
I0427 05:09:40.503238  8466 layer_factory.hpp:74] Creating layer loss
I0427 05:09:40.503278  8466 net.cpp:84] Creating Layer loss
I0427 05:09:40.503288  8466 net.cpp:380] loss <- fc8
I0427 05:09:40.503298  8466 net.cpp:380] loss <- label
I0427 05:09:40.503307  8466 net.cpp:338] loss -> loss
I0427 05:09:40.503324  8466 net.cpp:113] Setting up loss
I0427 05:09:40.503346  8466 net.cpp:120] Top shape: (1)
…
