…
solver_mode: GPU
net: "train_val.prototxt"
I0427 07:36:28.235424  9617 solver.cpp:70] Creating training net from net file: train_val.prototxt
I0427 07:36:28.236181  9617 net.cpp:257] The NetState phase (0) differed from the phase (1) specified by a rule in layer data
I0427 07:36:28.236495  9617 net.cpp:42] Initializing net from parameters: 
name: "CaffeNet"
state {
  phase: TRAIN
}
layer {
  name: "data"
  type: "HDF5Data"
  top: "data"
  top: "label"
  include {
    phase: TRAIN
  }
  hdf5_data_param {
    source: "videoSum_train.txt"
    batch_size: 128
  }
}
layer {
  name: "conv1"
  type: "Convolution"
  bottom: "data"
  top: "conv1"
  param {
    lr_mult: 0.001
    decay_mult: 1
  }
  param {
    lr_mult: 0.002
    decay_mult: 0
  }
  convolution_param {
    num_output: 96
    kernel_size: 11
    stride: 4
    weight_filler {
      type: "gaussian"
      std: 0.01
    }
    bias_filler {
      type: "constant"
      value: 0
    }
  }
}
layer {
  name: "relu1"
  type: "ReLU"
  bottom: "conv1"
  top: "conv1"
}
layer {
  name: "pool1"
  type: "Pooling"
  bottom: "conv1"
  top: "pool1"
  pooling_param {
    pool: MAX
    kernel_size: 3
    stride: 2
  }
}
layer {
  name: "norm1"
  type: "LRN"
  bottom: "pool1"
  top: "norm1"
  lrn_param {
    local_size: 5
    alpha: 0.0001
    beta: 0.75
  }
}
layer {
  name: "conv2"
  type: "Convolution"
  bottom: "norm1"
  top: "conv2"
  param {
    lr_mult: 0.001
    decay_mult: 1
  }
  param {
    lr_mult: 0.002
    decay_mult: 0
  }
  convolution_param {
    num_output: 256
    pad: 2
    kernel_size: 5
    group: 2
    weight_filler {
      type: "gaussian"
      std: 0.01
    }
    bias_filler {
      type: "constant"
      value: 1
    }
  }
}
layer {
  name: "relu2"
  type: "ReLU"
  bottom: "conv2"
  top: "conv2"
}
layer {
  name: "pool2"
  type: "Pooling"
  bottom: "conv2"
  top: "pool2"
  pooling_param {
    pool: MAX
    kernel_size: 3
    stride: 2
  }
}
layer {
  name: "norm2"
  type: "LRN"
  bottom: "pool2"
  top: "norm2"
  lrn_param {
    local_size: 5
    alpha: 0.0001
    beta: 0.75
  }
}
layer {
  name: "conv3"
  type: "Convolution"
  bottom: "norm2"
  top: "conv3"
  param {
    lr_mult: 0.001
    decay_mult: 1
  }
  param {
    lr_mult: 0.002
    decay_mult: 0
  }
  convolution_param {
    num_output: 384
    pad: 1
    kernel_size: 3
    weight_filler {
      type: "gaussian"
      std: 0.01
    }
    bias_filler {
      type: "constant"
      value: 0
    }
  }
}
layer {
  name: "relu3"
  type: "ReLU"
  bottom: "conv3"
  top: "conv3"
}
layer {
  name: "conv4"
  type: "Convolution"
  bottom: "conv3"
  top: "conv4"
  param {
    lr_mult: 0.001
    decay_mult: 1
  }
  param {
    lr_mult: 0.002
    decay_mult: 0
  }
  convolution_param {
    num_output: 384
    pad: 1
    kernel_size: 3
    group: 2
    weight_filler {
      type: "gaussian"
      std: 0.01
    }
    bias_filler {
      type: "constant"
      value: 1
    }
  }
}
layer {
  name: "relu4"
  type: "ReLU"
  bottom: "conv4"
  top: "conv4"
}
layer {
  name: "conv5"
  type: "Convolution"
  bottom: "conv4"
  top: "conv5"
  param {
    lr_mult: 0.001
    decay_mult: 1
  }
  param {
    lr_mult: 0.002
    decay_mult: 0
  }
  convolution_param {
    num_output: 256
    pad: 1
    kernel_size: 3
    group: 2
    weight_filler {
      type: "gaussian"
      std: 0.01
    }
    bias_filler {
      type: "constant"
      value: 1
    }
  }
}
layer {
  name: "relu5"
  type: "ReLU"
  bottom: "conv5"
  top: "conv5"
}
layer {
  name: "pool5"
  type: "Pooling"
  bottom: "conv5"
  top: "pool5"
  pooling_param {
    pool: MAX
    kernel_size: 3
    stride: 2
  }
}
layer {
  name: "fc6"
  type: "InnerProduct"
  bottom: "pool5"
  top: "fc6"
  param {
    lr_mult: 0.001
    decay_mult: 1
  }
  param {
    lr_mult: 0.002
    decay_mult: 0
  }
  inner_product_param {
    num_output: 4096
    weight_filler {
      type: "gaussian"
      std: 0.005
    }
    bias_filler {
      type: "constant"
      value: 1
    }
  }
}
layer {
  name: "relu6"
  type: "ReLU"
  bottom: "fc6"
  top: "fc6"
}
layer {
  name: "drop6"
  type: "Dropout"
  bottom: "fc6"
  top: "fc6"
  dropout_param {
    dropout_ratio: 0.5
  }
}
layer {
  name: "fc7"
  type: "InnerProduct"
  bottom: "fc6"
  top: "fc7"
  param {
    lr_mult: 0.001
    decay_mult: 1
  }
  param {
    lr_mult: 0.002
    decay_mult: 0
  }
  inner_product_param {
    num_output: 4096
    weight_filler {
      type: "gaussian"
      std: 0.005
    }
    bias_filler {
      type: "constant"
      value: 1
    }
  }
}
layer {
  name: "relu7"
  type: "ReLU"
  bottom: "fc7"
  top: "fc7"
}
layer {
  name: "drop7"
  type: "Dropout"
  bottom: "fc7"
  top: "fc7"
  dropout_param {
    dropout_ratio: 0.5
  }
}
layer {
  name: "fc8_learn"
  type: "InnerProduct"
  bottom: "fc7"
  top: "fc8"
  param {
    lr_mult: 1
    decay_mult: 1
  }
  param {
    lr_mult: 2
    decay_mult: 0
  }
  inner_product_param {
    num_output: 1000
    weight_filler {
      type: "gaussian"
      std: 0.01
    }
    bias_filler {
      type: "constant"
      value: 0
    }
  }
}
layer {
  name: "loss"
  type: "EuclideanLoss"
  bottom: "fc8"
  bottom: "label"
  top: "loss"
}
I0427 07:36:28.236696  9617 layer_factory.hpp:74] Creating layer data
I0427 07:36:28.236722  9617 net.cpp:84] Creating Layer data
I0427 07:36:28.236733  9617 net.cpp:338] data -> data
I0427 07:36:28.236773  9617 net.cpp:338] data -> label
I0427 07:36:28.236786  9617 net.cpp:113] Setting up data
I0427 07:36:28.236796  9617 hdf5_data_layer.cpp:80] Loading list of HDF5 filenames from: videoSum_train.txt
I0427 07:36:28.238102  9617 hdf5_data_layer.cpp:94] Number of HDF5 files: 3094
I0427 07:36:28.302834  9617 net.cpp:120] Top shape: 128 3 227 227 (19787136)
I0427 07:36:28.302878  9617 net.cpp:120] Top shape: 128 1 (128)
I0427 07:36:28.302893  9617 layer_factory.hpp:74] Creating layer conv1
I0427 07:36:28.302918  9617 net.cpp:84] Creating Layer conv1
I0427 07:36:28.302928  9617 net.cpp:380] conv1 <- data
I0427 07:36:28.302943  9617 net.cpp:338] conv1 -> conv1
I0427 07:36:28.302964  9617 net.cpp:113] Setting up conv1
I0427 07:36:28.375067  9617 net.cpp:120] Top shape: 128 96 55 55 (37171200)
I0427 07:36:28.375126  9617 layer_factory.hpp:74] Creating layer relu1
I0427 07:36:28.375145  9617 net.cpp:84] Creating Layer relu1
I0427 07:36:28.375154  9617 net.cpp:380] relu1 <- conv1
I0427 07:36:28.375167  9617 net.cpp:327] relu1 -> conv1 (in-place)
I0427 07:36:28.375181  9617 net.cpp:113] Setting up relu1
I0427 07:36:28.375398  9617 net.cpp:120] Top shape: 128 96 55 55 (37171200)
I0427 07:36:28.375412  9617 layer_factory.hpp:74] Creating layer pool1
I0427 07:36:28.375432  9617 net.cpp:84] Creating Layer pool1
I0427 07:36:28.375438  9617 net.cpp:380] pool1 <- conv1
I0427 07:36:28.375448  9617 net.cpp:338] pool1 -> pool1
I0427 07:36:28.375459  9617 net.cpp:113] Setting up pool1
I0427 07:36:28.375558  9617 net.cpp:120] Top shape: 128 96 27 27 (8957952)
I0427 07:36:28.375569  9617 layer_factory.hpp:74] Creating layer norm1
I0427 07:36:28.375586  9617 net.cpp:84] Creating Layer norm1
I0427 07:36:28.375592  9617 net.cpp:380] norm1 <- pool1
I0427 07:36:28.375602  9617 net.cpp:338] norm1 -> norm1
I0427 07:36:28.375615  9617 net.cpp:113] Setting up norm1
I0427 07:36:28.375630  9617 net.cpp:120] Top shape: 128 96 27 27 (8957952)
I0427 07:36:28.375638  9617 layer_factory.hpp:74] Creating layer conv2
I0427 07:36:28.375650  9617 net.cpp:84] Creating Layer conv2
I0427 07:36:28.375658  9617 net.cpp:380] conv2 <- norm1
I0427 07:36:28.375666  9617 net.cpp:338] conv2 -> conv2
I0427 07:36:28.375679  9617 net.cpp:113] Setting up conv2
I0427 07:36:28.392194  9617 net.cpp:120] Top shape: 128 256 27 27 (23887872)
I0427 07:36:28.392221  9617 layer_factory.hpp:74] Creating layer relu2
I0427 07:36:28.392237  9617 net.cpp:84] Creating Layer relu2
I0427 07:36:28.392259  9617 net.cpp:380] relu2 <- conv2
I0427 07:36:28.392292  9617 net.cpp:327] relu2 -> conv2 (in-place)
I0427 07:36:28.392309  9617 net.cpp:113] Setting up relu2
I0427 07:36:28.392410  9617 net.cpp:120] Top shape: 128 256 27 27 (23887872)
I0427 07:36:28.392423  9617 layer_factory.hpp:74] Creating layer pool2
I0427 07:36:28.392434  9617 net.cpp:84] Creating Layer pool2
I0427 07:36:28.392441  9617 net.cpp:380] pool2 <- conv2
I0427 07:36:28.392452  9617 net.cpp:338] pool2 -> pool2
I0427 07:36:28.392462  9617 net.cpp:113] Setting up pool2
I0427 07:36:28.392542  9617 net.cpp:120] Top shape: 128 256 13 13 (5537792)
I0427 07:36:28.392552  9617 layer_factory.hpp:74] Creating layer norm2
I0427 07:36:28.392563  9617 net.cpp:84] Creating Layer norm2
I0427 07:36:28.392570  9617 net.cpp:380] norm2 <- pool2
I0427 07:36:28.392580  9617 net.cpp:338] norm2 -> norm2
I0427 07:36:28.392590  9617 net.cpp:113] Setting up norm2
I0427 07:36:28.392601  9617 net.cpp:120] Top shape: 128 256 13 13 (5537792)
I0427 07:36:28.392607  9617 layer_factory.hpp:74] Creating layer conv3
I0427 07:36:28.392617  9617 net.cpp:84] Creating Layer conv3
I0427 07:36:28.392624  9617 net.cpp:380] conv3 <- norm2
I0427 07:36:28.392633  9617 net.cpp:338] conv3 -> conv3
I0427 07:36:28.392644  9617 net.cpp:113] Setting up conv3
I0427 07:36:28.439043  9617 net.cpp:120] Top shape: 128 384 13 13 (8306688)
I0427 07:36:28.439092  9617 layer_factory.hpp:74] Creating layer relu3
I0427 07:36:28.439107  9617 net.cpp:84] Creating Layer relu3
I0427 07:36:28.439116  9617 net.cpp:380] relu3 <- conv3
I0427 07:36:28.439129  9617 net.cpp:327] relu3 -> conv3 (in-place)
I0427 07:36:28.439142  9617 net.cpp:113] Setting up relu3
I0427 07:36:28.439350  9617 net.cpp:120] Top shape: 128 384 13 13 (8306688)
I0427 07:36:28.439364  9617 layer_factory.hpp:74] Creating layer conv4
I0427 07:36:28.439378  9617 net.cpp:84] Creating Layer conv4
I0427 07:36:28.439384  9617 net.cpp:380] conv4 <- conv3
I0427 07:36:28.439394  9617 net.cpp:338] conv4 -> conv4
I0427 07:36:28.439406  9617 net.cpp:113] Setting up conv4
I0427 07:36:28.473832  9617 net.cpp:120] Top shape: 128 384 13 13 (8306688)
I0427 07:36:28.473875  9617 layer_factory.hpp:74] Creating layer relu4
I0427 07:36:28.473887  9617 net.cpp:84] Creating Layer relu4
I0427 07:36:28.473896  9617 net.cpp:380] relu4 <- conv4
I0427 07:36:28.473907  9617 net.cpp:327] relu4 -> conv4 (in-place)
I0427 07:36:28.473919  9617 net.cpp:113] Setting up relu4
I0427 07:36:28.473994  9617 net.cpp:120] Top shape: 128 384 13 13 (8306688)
I0427 07:36:28.474002  9617 layer_factory.hpp:74] Creating layer conv5
I0427 07:36:28.474014  9617 net.cpp:84] Creating Layer conv5
I0427 07:36:28.474021  9617 net.cpp:380] conv5 <- conv4
I0427 07:36:28.474031  9617 net.cpp:338] conv5 -> conv5
I0427 07:36:28.474042  9617 net.cpp:113] Setting up conv5
I0427 07:36:28.497048  9617 net.cpp:120] Top shape: 128 256 13 13 (5537792)
I0427 07:36:28.497078  9617 layer_factory.hpp:74] Creating layer relu5
I0427 07:36:28.497089  9617 net.cpp:84] Creating Layer relu5
I0427 07:36:28.497097  9617 net.cpp:380] relu5 <- conv5
I0427 07:36:28.497107  9617 net.cpp:327] relu5 -> conv5 (in-place)
I0427 07:36:28.497117  9617 net.cpp:113] Setting up relu5
I0427 07:36:28.497190  9617 net.cpp:120] Top shape: 128 256 13 13 (5537792)
I0427 07:36:28.497200  9617 layer_factory.hpp:74] Creating layer pool5
I0427 07:36:28.497210  9617 net.cpp:84] Creating Layer pool5
I0427 07:36:28.497216  9617 net.cpp:380] pool5 <- conv5
I0427 07:36:28.497225  9617 net.cpp:338] pool5 -> pool5
I0427 07:36:28.497236  9617 net.cpp:113] Setting up pool5
I0427 07:36:28.497310  9617 net.cpp:120] Top shape: 128 256 6 6 (1179648)
I0427 07:36:28.497320  9617 layer_factory.hpp:74] Creating layer fc6
I0427 07:36:28.497337  9617 net.cpp:84] Creating Layer fc6
I0427 07:36:28.497344  9617 net.cpp:380] fc6 <- pool5
I0427 07:36:28.497354  9617 net.cpp:338] fc6 -> fc6
I0427 07:36:28.497367  9617 net.cpp:113] Setting up fc6
I0427 07:36:30.377832  9617 net.cpp:120] Top shape: 128 4096 (524288)
I0427 07:36:30.377877  9617 layer_factory.hpp:74] Creating layer relu6
I0427 07:36:30.377904  9617 net.cpp:84] Creating Layer relu6
I0427 07:36:30.377936  9617 net.cpp:380] relu6 <- fc6
I0427 07:36:30.377956  9617 net.cpp:327] relu6 -> fc6 (in-place)
I0427 07:36:30.377976  9617 net.cpp:113] Setting up relu6
I0427 07:36:30.378304  9617 net.cpp:120] Top shape: 128 4096 (524288)
I0427 07:36:30.378319  9617 layer_factory.hpp:74] Creating layer drop6
I0427 07:36:30.378334  9617 net.cpp:84] Creating Layer drop6
I0427 07:36:30.378341  9617 net.cpp:380] drop6 <- fc6
I0427 07:36:30.378351  9617 net.cpp:327] drop6 -> fc6 (in-place)
I0427 07:36:30.378366  9617 net.cpp:113] Setting up drop6
I0427 07:36:30.378384  9617 net.cpp:120] Top shape: 128 4096 (524288)
I0427 07:36:30.378391  9617 layer_factory.hpp:74] Creating layer fc7
I0427 07:36:30.378402  9617 net.cpp:84] Creating Layer fc7
I0427 07:36:30.378408  9617 net.cpp:380] fc7 <- fc6
I0427 07:36:30.378418  9617 net.cpp:338] fc7 -> fc7
I0427 07:36:30.378430  9617 net.cpp:113] Setting up fc7
I0427 07:36:31.224954  9617 net.cpp:120] Top shape: 128 4096 (524288)
I0427 07:36:31.225002  9617 layer_factory.hpp:74] Creating layer relu7
I0427 07:36:31.225018  9617 net.cpp:84] Creating Layer relu7
I0427 07:36:31.225025  9617 net.cpp:380] relu7 <- fc7
I0427 07:36:31.225038  9617 net.cpp:327] relu7 -> fc7 (in-place)
I0427 07:36:31.225051  9617 net.cpp:113] Setting up relu7
I0427 07:36:31.225174  9617 net.cpp:120] Top shape: 128 4096 (524288)
I0427 07:36:31.225184  9617 layer_factory.hpp:74] Creating layer drop7
I0427 07:36:31.225195  9617 net.cpp:84] Creating Layer drop7
I0427 07:36:31.225203  9617 net.cpp:380] drop7 <- fc7
I0427 07:36:31.225210  9617 net.cpp:327] drop7 -> fc7 (in-place)
I0427 07:36:31.225220  9617 net.cpp:113] Setting up drop7
I0427 07:36:31.225231  9617 net.cpp:120] Top shape: 128 4096 (524288)
I0427 07:36:31.225239  9617 layer_factory.hpp:74] Creating layer fc8_learn
I0427 07:36:31.225250  9617 net.cpp:84] Creating Layer fc8_learn
I0427 07:36:31.225256  9617 net.cpp:380] fc8_learn <- fc7
I0427 07:36:31.225265  9617 net.cpp:338] fc8_learn -> fc8
I0427 07:36:31.225276  9617 net.cpp:113] Setting up fc8_learn
I0427 07:36:31.433465  9617 net.cpp:120] Top shape: 128 1000 (128000)
I0427 07:36:31.433511  9617 layer_factory.hpp:74] Creating layer loss
I0427 07:36:31.433538  9617 net.cpp:84] Creating Layer loss
I0427 07:36:31.433547  9617 net.cpp:380] loss <- fc8
I0427 07:36:31.433558  9617 net.cpp:380] loss <- label
I0427 07:36:31.433569  9617 net.cpp:338] loss -> loss
I0427 07:36:31.433588  9617 net.cpp:113] Setting up loss
I0427 07:36:31.433609  9617 net.cpp:120] Top shape: (1)
…
